…
2023-04-02 21:10:10.971014: I tensorflow/core/platform/cpu_feature_guard.cc:193] This TensorFlow binary is optimized with oneAPI Deep Neural Network Library (oneDNN) to use the following CPU instructions in performance-critical operations:  AVX AVX2
To enable them in other operations, rebuild TensorFlow with the appropriate compiler flags.
C:\Users\ASHTON REBELLO\AppData\Local\Programs\Python\Python39\lib\site-packages\keras\optimizers\optimizer_v2\adam.py:114: UserWarning: The `lr` argument is deprecated, use `learning_rate` instead.
  super().__init__(name, **kwargs)
Model: "sequential"
_________________________________________________________________
 Layer (type)                Output Shape              Param #   
=================================================================
 conv2d (Conv2D)             (None, 28, 28, 60)        1560      
                                                                 
 conv2d_1 (Conv2D)           (None, 24, 24, 60)        90060     
                                                                 
 max_pooling2d (MaxPooling2D  (None, 12, 12, 60)       0         
 )                                                               
                                                                 
 conv2d_2 (Conv2D)           (None, 10, 10, 30)        16230     
                                                                 
 conv2d_3 (Conv2D)           (None, 8, 8, 30)          8130      
                                                                 
 max_pooling2d_1 (MaxPooling  (None, 4, 4, 30)         0         
 2D)                                                             
                                                                 
 flatten (Flatten)           (None, 480)               0         
                                                                 
 dense (Dense)               (None, 500)               240500    
                                                                 
 dropout (Dropout)           (None, 500)               0         
                                                                 
 dense_1 (Dense)             (None, 43)                21543     
                                                                 
=================================================================
Total params: 378,023
Trainable params: 378,023
Non-trainable params: 0
_________________________________________________________________
None
C:\Users\ASHTON REBELLO\Desktop\1_3rd year\IIOT LAB\assignment 2\Traffic-sign-Identifier-main\maybe.py:162: UserWarning: `Model.fit_generator` is deprecated and will be removed in a future version. Please use `Model.fit`, which supports generators.
…
